model/src/asset/model/activityModel.pth (torch, 348183 bytes, 14 tensors)

normalization.weight f4 [28]
000000 d1 db 73 3f ed 9b 63 3f 67 ea 83 3f 68 ec 80 3f
       0.9525729 0.889098 1.0305909 1.0072145
000010 34 9b 56 3f ef 63 40 3f 84 70 80 3f 5b 59 82 3f
       0.8383057 0.75152487 1.0034337 1.0183519
000020 69 37 83 3f dd 36 7a 3f b6 58 66 3f 9c d2 57 3f
       1.0251285 0.97739965 0.8997911 0.8430574
000030 27 9e 5f 3f 33 e3 64 3f a3 5b 99 3f 8c b1 79 3f
       0.87350696 0.8940918 1.198109 0.9753654
000040 74 a6 67 3f 78 74 7e 3f 7d c2 88 3f 2b 2b 77 3f
       0.9048836 0.9939647 1.0684353 0.96550244
000050 cc f8 79 3f c8 ee 8d 3f 02 e7 7a 3f af c8 8b 3f
       0.9764526 1.1088495 0.9800874 1.0920619
000060 e2 d7 6b 3f f3 af 8c 3f 5f ed 7c 3f 52 d2 7b 3f
       0.92126286 1.0991195 0.987997 0.983678

normalization.bias f4 [28]
000000 a9 08 e3 bc d7 4e ac bd ac 3b 3d bc 53 a9 3c bd
       -0.02771409 -0.08413475 -0.011549871 -0.046059918
000010 65 03 98 bd be f2 44 bd 96 9c a4 bd 49 49 9b bc
       -0.074225225 -0.04808306 -0.08037679 -0.018955844
000020 ce 2d fd 3c d8 71 1b bb 63 36 2c 3d 8b ee 8d bb
       0.03090563 -0.002371898 0.042044055 -0.004331415
000030 64 b1 82 bd 0f 53 02 3e a3 8b f9 3c e7 d1 73 3d
       -0.06381491 0.12726997 0.030462092 0.05952635
000040 9d e1 35 bd e7 fb 02 bd 75 46 58 3d dd 95 cc 3c
       -0.044404615 -0.031978514 0.052801568 0.024973804
000050 e9 64 40 3d 32 e7 ef ba 8d 33 e4 3b 04 b2 a3 3c
       0.046971235 -0.0018303155 0.006964153 0.019982345
000060 c8 11 13 3b 67 4b b1 bb d2 e4 94 bc 2b 47 b3 bd
       0.0022441018 -0.0054106 -0.018175516 -0.087538086

normalization.running_mean f4 [28]
000000 8c 1c d8 be 50 9f c9 c0 e1 e6 b9 c0 be ab 82 3c
       -0.4220928 -6.3006973 -5.8094335 0.015951034
000010 57 40 4c 3d 2a 8f 31 3b 6f a3 27 c2 c9 5b 46 c0
       0.049866047 0.002709339 -41.909603 -3.0993521
000020 33 72 00 43 47 91 13 43 d8 ec a5 42 aa 9d a1 42
       128.44609 147.56749 82.962585 80.80794
000030 57 66 96 42 98 8e 84 42 16 64 a2 bd 36 14 77 40
       75.19988 66.2785 -0.07929246 3.8606086
000040 f7 ad d6 c0 73 11 59 be 4a 9f 0f 3e 11 11 15 bd
       -6.708736 -0.21198063 0.14025608 -0.03639323
000050 59 ed d2 41 b2 1d 19 c0 3d 18 0a 43 96 81 48 43
       26.365892 -2.3924375 138.09468 200.5062
000060 60 70 c5 42 db b3 df 42 ae af 00 43 ec a6 bd 42
       98.71948 111.85128 128.68625 94.82602

normalization.running_var f4 [28]
000000 f2 32 b4 40 05 9f 6e 40 4f 50 63 41 44 65 2b 3f
       5.631219 3.7284558 14.207107 0.66951394
000010 5f 8e d0 3e 5b ff b4 3e b4 1b 4b 43 9d f5 67 43
       0.4073362 0.3535107 203.10822 231.95943
000020 92 b7 23 44 5d 60 36 47 12 5d 1b 47 77 05 19 47
       654.8683 46688.363 39773.07 39173.465
000030 f2 4b 03 47 df 2e ea 46 d9 b7 2f 41 13 72 49 41
       33611.945 29975.436 10.982385 12.59035
000040 99 5d 7a 41 99 74 a5 3f 86 97 7d 3f d7 6f 50 3f
       15.647851 1.2926208 0.9905933 0.81420654
000050 68 40 1e 44 25 29 01 44 0f 21 4c 44 97 93 37 47
       633.00635 516.6429 816.51654 46995.59
000060 d5 40 27 47 06 c3 65 47 8b d6 7c 47 03 f5 29 47
       42816.832 58819.023 64726.543 43509.01

conv1.weight f4 [32, 1, 3, 3]
000000 72 e2 47 3d 32 46 46 3e 79 f6 d7 3d b0 4e c6 bd
       0.04879994 0.19362715 0.10545058 -0.09682977
000010 e2 69 0f bc a5 74 8c bc e8 dc b6 3b 7a 98 66 ba
       -0.008753272 -0.017145464 0.0055805333 -0.00087965245
000020 e4 fb d5 bc e1 8e 0c bd 25 26 b0 3c 98 24 72 3c
       -0.026121087 -0.034315947 0.021502564 0.014779232
000030 40 8b bb bc c1 d9 84 bd a7 c3 ef 3b f0 c4 ed 3b
       -0.022893548 -0.06486846 0.0073170247 0.007256143
000040 d6 ff 84 3d 86 c6 10 3d 78 42 2a bd fa 7b e7 bc
       0.06494109 0.035345577 -0.041567296 -0.028257359
000050 0b 84 50 bd 3f ad 2d 3d 21 7e 2d 3d c0 c6 2b 3b
       -0.050907176 0.04240155 0.042356614 0.0026210994
000060 b1 e8 25 3e 53 0c da 3d 25 48 ff 3d a0 7d 28 bd
       0.16202046 0.10646882 0.12464932 -0.04113543
000070 f7 73 14 bc d9 4b e9 bd cc 4f a0 3d ba 1b b5 3c
       -0.009060851 -0.1139142 0.0782772 0.022107948
000080 21 43 09 3e 7d 0f a0 bc 43 e2 b8 bd 93 ee 8a bc
       0.13404514 -0.019538635 -0.09027531 -0.016959464
000090 54 2c dc 3d 6c 72 09 bd 87 76 85 bd fc 77 dc bb
       0.107506424 -0.033556387 -0.06516748 -0.0067281704
0000a0 ac 2f af 3c 9d 7a e6 3c de 6b f9 3c f6 af c6 3c
       0.021385036 0.028134638 0.030446943 0.024253827
0000b0 6e ea fc 3c 1a 20 91 3d 3d 91 0e 3e 9d 32 94 be
       0.030873504 0.07086201 0.13922592 -0.28944865
0000c0 c0 f5 60 bd ef 2d 1e 3b 3b f9 d2 3c 19 9d 21 bd
       -0.054921865 0.0024136265 0.025753608 -0.03945646
0000d0 5f cf 16 bd 73 fa 95 bd 22 e1 5b 3d 56 a5 b3 3b
       -0.03681886 -0.0732316 0.0536815 0.005482356
0000e0 56 c7 b3 bd 0a 96 2d bc 04 db 8b 3d 16 95 e0 bd
       -0.08778255 -0.010594854 0.06828883 -0.10965936
0000f0 1c 3d 55 bd 9b 87 fd bd 50 c9 5c 3e bf b0 2c 3e
       -0.05206023 -0.1237938 0.2156117 0.16864298
000100 f2 94 ca 3d 72 0b cb 3c 54 92 6e 3d cc ba 0a 3d
       0.0989169 0.024785731 0.058245018 0.03386955
000110 16 9d c6 bd 0f e7 f4 3c 30 3a b4 3d be dd 8d 3c
       -0.096979305 0.029895334 0.08800161 0.017317649
000120 55 89 2a bd 0a e1 88 be 3e fc 97 bd e8 65 a2 3d
       -0.041634876 -0.2673419 -0.07421158 0.07929593
000130 f0 96 21 3e 29 45 d8 bd db 73 2a 3e 55 d2 59 3d
       0.15780234 -0.10560066 0.16645758 0.053179104
000140 50 0f b5 3d ef d4 f5 3c f2 c1 11 3c f8 eb bf bb
       0.08840811 0.030008761 0.008896338 -0.005856987
000150 88 47 35 bc 04 68 d1 3c 24 75 17 3c 80 f2 ec bd
       -0.011064418 0.025562294 0.009244237 -0.11569691
000160 61 a3 4d bd 8a 84 fc 3d 74 80 22 3d 14 6c af 3c
       -0.05020464 0.12329967 0.039673284 0.02141384
000170 e9 15 96 3d 13 ef 5e 3d 29 85 74 3d a6 12 c4 3d
       0.07328398 0.054427218 0.059697304 0.095738694
000180 9c 36 cc bc 63 5a cd bd 7d a0 e7 3d 12 cc ca bd
       -0.024928384 -0.100270055 0.113099076 -0.099022046
000190 a6 ab 0e bd 2a 38 83 3c fd c1 9e bc 43 10 56 be
       -0.034831665 0.016017992 -0.01937961 -0.20904641
0001a0 95 b6 c4 bd e3 72 27 be 37 0d 8d bd e5 43 a6 3d
       -0.09605137 -0.1635242 -0.06887286 0.081184186
0001b0 0b 9e 4e 3d 24 84 e5 bc 7d 67 4e 3e 3b 75 0b be
       0.05044369 -0.028017111 0.20156665 -0.13618939
0001c0 93 b7 25 bd bf 67 33 be 9a 19 34 3d 96 0a a1 3c
       -0.040458273 -0.17520045 0.043969728 0.019658368
0001d0 27 25 1d be db a4 ac bc 6c b0 6b 3a 13 e6 d0 bd
       -0.15346204 -0.021074703 0.00089908275 -0.10200133
0001e0 a3 ae 83 3c 5a 50 b2 bd f0 8f 71 bd 0e 43 22 bd
       0.016074484 -0.08706732 -0.05897516 -0.03961473
0001f0 85 2b 7f 3e 13 35 58 3d 0c 09 08 3e b2 ea 3b 3d
       0.24918945 0.05278499 0.13284701 0.04587812
000200 6b f2 1c 3a 44 25 b4 bc d8 0f f1 bb 97 a4 05 bd
       0.0005987051 -0.021990426 -0.007356625 -0.03262767
000210 ff f8 a9 bd 3b ec 28 3e 20 f8 05 be 93 bf ae bb
       -0.08299445 0.16496365 -0.13082933 -0.005332896
000220 9f 92 27 3d d2 33 77 3c e8 c8 60 3d 66 8e 37 3e
       0.040911313 0.0150880385 0.0548791 0.17925414
000230 ba 8c ee bc aa 3e bb bd 52 8d 4c be 26 0b 24 3b
       -0.029119838 -0.091428116 -0.19975784 0.002503106
000240 9f 6a 59 bd 77 f7 93 3d 4e 55 db bc 49 bb cf bc
       -0.053080197 0.072249345 -0.026774075 -0.02535786
000250 87 f1 af bd 31 94 cb bd c3 45 25 3c 86 b7 f2 bd
       -0.085909896 -0.09940375 0.010087433 -0.118514106
000260 f7 39 28 3e 93 21 04 be 90 ac 84 3d 3d 04 0b 3e
       0.16428362 -0.12903433 0.06478226 0.13575836
000270 91 c9 8c 3d e7 13 04 be c8 59 b8 3c 1c b9 26 bd
       0.06874383 -0.12898217 0.022503749 -0.040703878
000280 f3 65 3f 3c 54 05 cd bd bc b7 9b bd 0b 15 94 bd
       0.011682021 -0.10010782 -0.07603404 -0.07230576
000290 3e 32 be 3c 47 23 1d 3e d3 58 c7 bc f5 cb 1a bb
       0.023217317 0.15345488 -0.024334347 -0.0023620103
0002a0 b7 de 98 bd 6e 79 e8 bd 80 85 3b 3d c7 1c 02 be
       -0.074643545 -0.11351286 0.045781612 -0.1270629
0002b0 7d 8f 5f 3e df d5 6b bd ed e4 b0 3d 3a 71 42 bd
       0.2183208 -0.05757701 0.08637414 -0.047471263
0002c0 13 a5 ad b9 6b 0b 2b 3d 01 c0 0f bc b7 b4 bc 3c
       -0.0003312012 0.041758936 -0.008773805 0.02303539
0002d0 39 86 21 bd 5b 42 1e 3e 1f 7b 13 3d 74 b0 59 3c
       -0.039434645 0.15455 0.03600609 0.013286699
0002e0 fe ff d6 3d c8 d0 ba 3d 0d b9 ec bb 68 c2 f6 bc
       0.104980454 0.09121853 -0.007224208 -0.030121997
0002f0 83 5f 92 3d 13 6d 04 be 96 a9 e3 3d 85 f2 46 bd
       0.07147124 -0.12932234 0.1111633 -0.04857113
000300 ea 7f bd 3d a5 2a 0d be aa e0 4c 3d 54 d4 c5 3c
       0.09252913 -0.13785799 0.050018944 0.024149098
000310 6d 9d 32 3d c5 52 89 bd 30 49 80 bd 9b 4a 25 3d
       0.043607164 -0.0670524 -0.062639594 0.040354352
000320 0f 78 91 3b b4 f2 27 3c 0f 61 5b bc 2b 1b d8 bc
       0.004439361 0.010250736 -0.01338984 -0.026380142
000330 d3 84 24 3d dd ee 1c 3d 7a 02 a7 ba 26 95 23 3d
       0.040165734 0.038313735 -0.0012741827 0.03993716
000340 bf fb 1e 3e 54 dc c1 bc 1d b5 ed 3d 95 78 d7 bd
       0.15525721 -0.023664631 0.1160681 -0.10521046
000350 f6 3a 0c 3d 53 f1 4a bc c6 e7 d2 bc 3f 06 96 bd
       0.034235917 -0.012386638 -0.025745284 -0.0732541
000360 96 4c ef bd 1b e9 64 bc 84 80 f8 bd f5 04 23 bd
       -0.116845295 -0.013971592 -0.121338874 -0.03979965
000370 ff e4 f1 3b 0d 28 91 3d 76 6c 0f 3e 90 d5 a6 bd
       0.007382035 0.07087717 0.14006218 -0.081462026
000380 6e 86 1c 3d 06 66 95 3d 1b 6f 0d 3c b9 3f 0e bd
       0.03821414 0.0729485 0.008632447 -0.03472874
000390 72 ad 8f bd c9 f0 91 3c 5c db b0 bd de 00 af 3a
       -0.07015504 0.01781501 -0.086355895 0.0013351699
0003a0 f5 0b a1 bd d0 59 0d 3e f3 7a ca bd 21 07 da 3d
       -0.07863609 0.13803792 -0.09886732 0.10645891
0003b0 5d 4f 85 3d 76 9e a4 bc 0b 7b 20 3c 5b 91 97 bd
       0.06509278 -0.020095091 0.009794961 -0.07400771
0003c0 61 49 a6 3d e7 dd fe bd a9 df 7f 3d d7 90 e8 bd
       0.08119465 -0.12444668 0.06246916 -0.11355751
0003d0 e7 2b eb bd fe d9 09 bb f9 71 18 bd 28 10 0b 3e
       -0.11482983 -0.0021034474 -0.037218068 0.13580382
0003e0 e5 37 df 3d 0d 77 e8 bd b0 32 5a 3c a9 db 5e 3d
       0.10899333 -0.11350832 0.013317749 0.054408703
0003f0 bf 0a 62 3c 9c 94 99 bd b8 e9 57 3c 64 6c d1 3c
       0.013796507 -0.07499048 0.0131782815 0.02556438

conv1.bias f4 [32]
000000 e2 a3 5d bd 32 fd 03 3d 26 5d b6 bc 67 fd 02 bd
       -0.05411137 0.032223888 -0.022261214 -0.031979945
000010 80 3a 52 3c 70 ab 2d 3c 3e df 78 bd 20 c7 4c bd
       0.01283133 0.010599956 -0.060759775 -0.049994588
000020 1d 36 7d bd be 53 93 bc 3e 80 11 bd e9 83 d2 bd
       -0.061819185 -0.017984267 -0.035522692 -0.10279066
000030 bc 6a 8a bc d1 32 9b bc ab 96 17 3d 61 25 5e bd
       -0.016896598 -0.01894513 0.037008923 -0.054234866
000040 7d 34 fc bc b6 4d a9 bd 11 a9 d3 bd 3c 10 d7 bc
       -0.030786747 -0.08266775 -0.10334981 -0.026252858
000050 70 d2 47 bc 39 46 49 bd c3 ce 86 bc 8f 2f 43 bd
       -0.012196168 -0.049139235 -0.016456014 -0.047652777
000060 21 47 43 bd fc 5d 3c bd a0 71 3f bd 64 f3 13 3c
       -0.047675256 -0.045988068 -0.04673922 0.009030197
000070 a2 d7 9f bc fb b5 5f bd 90 be 94 bd 11 66 59 bd
       -0.019512001 -0.05461691 -0.072629094 -0.053075854

conv2.weight f4 [64, 32, 3, 3]
000000 0e ef 9f 3d 74 38 1f be 1e 41 75 bb 12 17 f8 bc
       0.07809268 -0.15548879 -0.0037422846 -0.030284438
000010 90 28 12 bd 64 06 9c bd 70 91 ec bd e9 6c b5 bc
       -0.035683215 -0.076184064 -0.115511775 -0.022146659
000020 4b 17 2c bb 2d 58 22 bd 55 f9 a8 bc e5 04 50 3d
       -0.0026259 -0.039634872 -0.020626703 0.050785918
000030 25 8f 2c bd 64 1e 11 3d 79 33 7a bc 66 4d 11 3c
       -0.0421287 0.035429373 -0.015271061 0.008868551
000040 54 7a 68 bd f9 b8 79 3d 14 67 11 3d ae 83 e2 bd
       -0.056757286 0.06096742 0.035498694 -0.11060272
000050 43 03 ff bd 89 d1 92 3d 23 d2 39 bd 93 74 b4 3d
       -0.12451794 0.07168872 -0.045366418 0.08811297
000060 9c 72 3c bd 41 7e 45 bd d5 5c a8 3d 72 a2 d6 3c
       -0.046007738 -0.04821611 0.08220831 0.026200507
000070 4d bd ac 3d f0 94 92 bd 8f 17 b0 3d a0 d1 05 be
       0.08434544 -0.07157314 0.085982434 -0.13068247
000080 f8 52 e8 ba 16 58 03 3c e7 3c 92 3d 8c 0b 9a bd
       -0.0017724922 0.008016607 0.071405225 -0.07521734
000090 49 df ad 3d 79 51 78 bd 22 61 1f 3e e1 e3 23 3d
       0.08489854 -0.060624573 0.15564397 0.040012244
0000a0 98 e9 44 3d 30 48 f1 3c 59 bb 3a be 65 a1 5d bd
       0.048074335 0.029453367 -0.1823553 -0.054108996
0000b0 9e 97 81 bd 03 43 b9 3c 40 de c2 3c f1 17 9a 3c
       -0.06327747 0.022614961 0.023787618 0.018810244
0000c0 67 8c 2b bd 0a 67 90 3d 92 4e f6 bc f9 d2 67 bd
       -0.041881945 0.07050903 -0.030066762 -0.056597684
0000d0 8b d0 a0 3d 8e b3 91 bd ae bb 1a 3d ec f6 34 bb
       0.078522764 -0.071143255 0.03777664 -0.0027612997
0000e0 5a 19 13 bd 1e 71 88 3d 9f df ae 3c fc b7 0a 3b
       -0.03591285 0.066622004 0.021346865 0.0021166792
0000f0 d3 a5 90 bd 88 96 2c bc 91 f7 30 bc 3b de 1b bd
       -0.070628785 -0.010533936 -0.010801212 -0.038053732
000100 92 65 bb 3c 15 01 75 bc f9 5b fc bd 7f c3 26 3c
       0.022875581 -0.014953871 -0.1232223 0.010178446
000110 dc dc 29 bc 51 69 89 3c 5e 56 ea 3c 47 80 f7 bd
       -0.010367598 0.016773852 0.028605636 -0.12085014
000120 39 09 73 b9 59 d5 8d 3d b0 9d b5 bd c9 4a ae 3d
       -0.00023177722 0.069254585 -0.08867967 0.08510358
000130 77 3b d4 ba 60 68 c1 bd 4a 98 0f be 30 0c 73 bd
       -0.0016192038 -0.09443736 -0.14022937 -0.059337795
000140 c4 cf 07 3e 11 af d9 3c e7 cb 28 bd 88 2e 72 bd
       0.1326285 0.026572736 -0.04121008 -0.059126407
000150 a6 6d 86 bd d7 c8 93 3d 70 8d b7 bd 2e 7d e9 3b
       -0.065638825 0.072160415 -0.08962524 0.0071255183
000160 52 52 60 3c 89 fa a3 ba b7 13 8a 3b a8 4d ee bd
       0.013691502 -0.0012510578 0.004213776 -0.116359055
000170 ed e6 86 bd f6 db 35 3c 68 e8 65 3d 7b d8 a8 bd
       -0.06587014 0.011099806 0.056129843 -0.082444154
000180 95 97 a0 bd 5e 7e 45 3e cc 71 0f bd d2 fd 45 3c
       -0.07841412 0.19286487 -0.035020635 0.012084441
000190 6c a0 53 bb 9f 66 c1 3d 98 e4 89 bd bf 10 2d ba
       -0.0032291664 0.094434015 -0.06733054 -0.00066019216
0001a0 d5 84 84 3d bb 88 ec bb 5e 80 10 bd 1d 03 7d 3d
       0.06470648 -0.007218448 -0.03527867 0.061770547
0001b0 8b 65 98 bb ee 10 ad bc 40 83 a1 3b 2c 12 11 bd
       -0.0046507767 -0.021126237 0.0049289763 -0.03541772
0001c0 25 9d 9b 3d 3f 16 94 bd 11 17 03 be 3b 77 48 3c
       0.07598332 -0.072308056 -0.12801768 0.012235458
0001d0 5e 7d 8e bd fb 1a f9 bc 04 eb 53 bd c1 8d 63 bd
       -0.06957506 -0.030408373 -0.0517378 -0.05555511
0001e0 7c 1c 3b bd e9 a1 3a 3d 8a c4 24 bd 4c 5f c3 bd
       -0.04568146 0.045564566 -0.040226497 -0.09539661
0001f0 08 02 cc 3d 48 47 ca 3d b9 ed 0f bd fc ee aa 3a
       0.09961325 0.09876877 -0.03513882 0.0013041194
000200 7e 3f 79 3c 64 a8 50 bc f5 a0 5b bd 8d 2a 69 bd
       0.015212892 -0.01273546 -0.053620297 -0.056925345
000210 c6 cb c9 bd 40 62 8e bd dd 91 07 bd a7 64 c0 3d
       -0.0985332 -0.069523335 -0.03309809 0.09394198
000220 ae 05 ac bc 5d 7a 24 3d 6e 63 b5 3c 17 74 5f 3d
       -0.020998802 0.040155757 0.022142138 0.05455407
000230 89 8d ad bb ba db 74 3d b0 28 be bd e9 4c aa bc
       -0.0052964133 0.05977986 -0.09285104 -0.020788627
000240 4d e0 39 3c 5b ab a3 bd 20 d7 11 3d fb 3b 83 3d
       0.011344981 -0.07991668 0.03560555 0.06407925
000250 3d 19 46 bc fc 5e b0 bc be 64 53 bc 93 c0 8c bc
       -0.012090978 -0.021529667 -0.012902437 -0.01718167
000260 45 1a 83 3c d9 6d 87 bd 42 72 83 bd 62 96 68 bd
       0.016003737 -0.06612749 -0.06418277 -0.05678404
000270 68 a0 8f bd 0e c6 86 bc 39 6b 13 be 5e 86 4c bd
       -0.07013017 -0.016451862 -0.14396371 -0.04993283
000280 7c ba 1a 3c 76 9f 75 ba 49 bd 7b bd 55 9c c1 3d
       0.009443875 -0.000936977 -0.061459813 0.09453646
000290 60 58 da 3b 2c a7 2b bd 02 04 9e 3d 87 c4 4d 3d
       0.006663367 -0.041907474 0.07715608 0.05023625
0002a0 4e 48 0e be d5 c0 36 bd b8 47 e7 3b b1 95 c7 3d
       -0.1389477 -0.044617493 0.00705811 0.09745348
0002b0 3a 4f 3a bc 3e be af 3d 78 7b 11 bd 98 e7 60 3d
       -0.011371428 0.08581208 -0.03551814 0.054908365
0002c0 6b 88 17 bc 9d ce 22 bd b1 a7 19 bd 3b b9 15 3e
       -0.009248833 -0.039747823 -0.03751344 0.14621441
0002d0 2e 35 83 bc 1a 51 80 bc 78 7a e8 bd 52 73 21 bd
       -0.016016569 -0.015663672 -0.11351484 -0.03941662
0002e0 4b 98 c3 bd 75 6f 08 bc 86 48 06 bd 72 09 22 bd
       -0.09550532 -0.008327355 -0.032784007 -0.03955979
0002f0 e2 33 a9 3c 76 ca 45 3d 7f 80 08 be 27 0f e7 3d
       0.020654622 0.048288785 -0.13330267 0.11282187
000300 73 d9 58 bd 97 fe 80 3d 0d 1d cc bd eb 23 94 3c
       -0.05294175 0.06298559 -0.099664785 0.018083533
000310 45 f9 57 3c 6b 40 e4 3c 10 cb f8 bd 73 b5 9c 3d
       0.013181989 0.027862748 -0.12148106 0.07651796
000320 4b a1 c2 bd 68 d8 20 bd 23 c9 e0 bc e1 ca bd bd
       -0.095034204 -0.03926888 -0.02743966 -0.09267212
000330 82 2f 67 bd 6e cc 66 3d e5 57 5e bb dc 11 c6 bb
       -0.05644179 0.056347303 -0.00339269 -0.0060446095
000340 83 9b 63 bd 32 90 81 3b 1f f0 a4 3c fc 8e 21 bc
       -0.05556823 0.003953957 0.02013403 -0.00986075
000350 1b ec 1d bd c0 5a 7f bd c7 cf 8e 3d 1d 7b de 3d
       -0.038555246 -0.062342405 0.06973224 0.10863326
000360 08 e2 5d bc 73 61 5b bd c1 19 0a be a6 bc 3b 3d
       -0.01354266 -0.05355973 -0.13486387 0.045834206
000370 ec 6c a4 b9 2c 56 12 3e e9 27 9d bd 5a 9e 7b 3d
       -0.0003136167 0.14290684 -0.07673628 0.061430313
000380 72 6b 0f 3d ac c9 36 bb 4c 39 d6 3c cd 4e c9 bc
       0.035014577 -0.0027891202 0.026150368 -0.024573708
000390 a3 6f 17 bd e5 dc 84 bd 42 90 ca 3c 21 ce 30 3d
       -0.0369717 -0.06487445 0.02472699 0.04316533
0003a0 c0 9b a3 bd 8a e0 c8 3d 2f 79 3e bd 83 8f 00 bd
       -0.07988691 0.098084524 -0.04650229 -0.031386863
0003b0 2d 55 c2 bc 8f f5 2e bd 8c 4e a5 bd b2 b0 7f bc
       -0.023722256 -0.04271465 -0.08071622 -0.015606092
0003c0 a7 85 07 be 78 75 57 bd 7a d4 12 3e 99 6c 99 3d
       -0.13234578 -0.05260226 0.14338866 0.074914165
0003d0 9a 5f 4f 3c e6 c1 8e bd c8 fd 6a 3c 93 69 d0 bd
       0.0126570705 -0.06970577 0.014342733 -0.10176387
0003e0 7f 14 1e bd fd be 97 bd e6 c0 ba bd b3 a7 cb bb
       -0.038593765 -0.07409475 -0.09118824 -0.0062150597
0003f0 bc 6e 78 3d 67 3b 85 3d 2c 92 21 bd f6 48 f1 3c
       0.06065248 0.06505471 -0.03944604 0.029453736

conv2.bias f4 [64]
000000 5e af 0f bb e5 aa 25 3c 94 d8 5d 3d 1f fe 1b 3d
       -0.0021924595 0.010111545 0.054161623 0.038084146
000010 c4 a0 9f bc 9b 2a 31 bd ce 8c 53 ba df c0 cf bd
       -0.019485839 -0.043253522 -0.0008069993 -0.10144209
000020 ab 93 b5 3c 57 2c 9e 3d df 94 0d 3d bf 0a 7a 3d
       0.02216514 0.07723301 0.034565803 0.061045405
000030 a8 12 27 bc 65 1e f3 3c d2 46 88 3c 71 83 ab 3c
       -0.010197319 0.02967758 0.016635332 0.0209367
000040 bd 4b f2 3c de 11 ae bc bf a7 0f 3d 4a 6c 91 3d
       0.02957713 -0.021248754 0.035072085 0.071007326
000050 f9 dc 18 3c f3 05 18 bd 1a 47 31 3d 50 56 44 bd
       0.009330028 -0.03711505 0.0432807 -0.047933877
000060 74 7c 84 3d 44 43 eb 3c c8 40 8a 3d de e4 c7 39
       0.0646905 0.028718598 0.06750637 0.00038126757
000070 0e 96 c9 3c 82 19 90 bd e1 aa f9 3c 93 c8 5e 3d
       0.024607684 -0.07036115 0.03047699 0.0543905
000080 5b 0a 86 3d 0b 59 28 3d 8f 9f 4f 3d 5d b8 f3 3c
       0.06544944 0.041100543 0.050689276 0.029750997
000090 55 b5 a9 3d d8 cb 72 3d 00 9e ed bc 18 2d c4 bd
       0.082865395 0.05927643 -0.029006004 -0.095789135
0000a0 30 a2 09 bd cb 94 8a 3d af f2 f5 bc 10 ae f2 bc
       -0.03360194 0.06766661 -0.030022947 -0.029624015
0000b0 a1 4b be bd de 69 fa 3c 13 0b c6 3c c5 18 9b 3c
       -0.09291769 0.03056806 0.024175202 0.01893271
0000c0 b1 5c 68 3d a0 a8 6f bc 47 66 5a 3d c0 dc db 3a
       0.056729022 -0.014627606 0.053320196 0.0016774163
0000d0 51 69 03 3b 6b 9e be 3c 94 7b 98 3b a1 93 37 3d
       0.0020051787 0.023268899 0.0046534035 0.044818524
0000e0 9e a0 a5 bc 91 9e c3 bc 5d 09 87 bc 2e 6d 65 3d
       -0.02021819 -0.023879321 -0.016483957 0.056012325
0000f0 0e b8 93 3d d1 19 82 bc c9 ed 16 bc e8 b4 a1 bd
       0.0721284 -0.01588145 -0.009211966 -0.07895833

conv3.weight f4 [64, 64, 3, 3]
000000 bf 18 6f bd 08 d7 7b 3d 47 7a 25 bd bc 1a 8c 3d
       -0.05837321 0.061484367 -0.040399816 0.06841037
000010 25 9a 56 bc d6 89 39 3d fb 79 de 3a a2 3a b7 bd
       -0.013098274 0.045297466 0.0016973609 -0.0894673
000020 c7 54 a1 bd 03 59 91 3d e0 1f c7 3d 99 fe 1e 3d
       -0.07877498 0.07097056 0.097228765 0.038817022
000030 f1 64 4f 3d 71 eb cf bc 25 16 21 3d fa 12 15 bb
       0.050633375 -0.025380822 0.03932776 -0.0022746907
000040 48 81 82 bc ba 59 55 3d e3 a9 55 3d 1a 00 c8 3c
       -0.015930787 0.052087523 0.05216397 0.02441411
000050 32 dc b3 3c 92 f2 8d 3d 48 04 c5 bd e6 17 93 3d
       0.021955583 0.06931032 -0.09619957 0.07182293
000060 33 85 5b bd 7b 06 b5 bc d4 d4 b8 bc 19 53 8b bc
       -0.053593826 -0.022097817 -0.022562422 -0.017007397
000070 f6 e7 69 3d 82 e7 94 bd c2 66 c3 bc ff 1d 1b 3d
       0.05710598 -0.07270719 -0.02385271 0.037870403
000080 8a a3 48 3d 1e b5 b6 bd e6 46 07 3c 74 aa dc bc
       0.048984088 -0.08921264 0.00825665 -0.026936747
000090 fa 15 fa 3d ce cd e8 3d 1f 45 4b 3d 94 21 be bc
       0.12211223 0.11367379 0.049626466 -0.02320937
0000a0 5b c2 91 bd 70 65 02 bb 0f 06 be 3c 44 c3 8d bc
       -0.071171485 -0.0019896887 0.023196248 -0.017305024
0000b0 1b f1 0e bc 93 6b 52 bc 12 06 1d 3d 4b ed cf bc
       -0.008724476 -0.0128430305 0.038335867 -0.025381705
0000c0 14 3b 89 3c a5 64 14 3e 53 ac 63 bc 45 2c 8d 3d
       0.016751803 0.14491518 -0.013896066 0.06893209
0000d0 b2 40 4d 3d 11 eb 86 3d 19 a9 dc 3d 3a bd 66 3c
       0.050110526 0.06587804 0.1077444 0.014083201
0000e0 45 91 d1 3c 32 b7 60 bd ee 90 2a ba 7f 44 82 3c
       0.025581965 -0.05486221 -0.00065065816 0.015901802
0000f0 63 8e 3b 3d 87 13 95 bd 4a b1 b0 bc bb e5 cb bd
       0.045790087 -0.07279115 -0.021568913 -0.09955927
000100 2b 15 28 bd c7 ad 85 3d 2b f3 87 3d 88 8d 1a bb
       -0.041035812 0.06527286 0.066381775 -0.0023582894
000110 e6 d1 3e 3e 5d c3 21 bd 2f 06 fd bc 4a 69 3a bd
       0.18634757 -0.039492954 -0.030886738 -0.045510568
000120 c2 e2 17 3e 65 c8 a5 bd 35 2b 6c bc b1 33 7f bd
       0.14832595 -0.08094863 -0.014414598 -0.062305156
000130 41 e8 8b bd 31 f8 0f bc 48 ec ac 3d 76 04 ab bd
       -0.06831408 -0.008787201 0.084435046 -0.0835046
000140 b9 1e f8 3c 6b a2 84 bd 7a 7f 3b 3d 38 bb fa 3d
       0.030288087 -0.06476291 0.045775868 0.122427404
000150 84 3f a3 bd 61 fa e8 3c 08 3a 24 bd e7 16 80 bc
       -0.07971099 0.028439702 -0.040094405 -0.01563592
000160 b0 6c b0 3c e9 73 81 bd 5a f0 ef bd 6e 32 c2 3d
       0.021536201 -0.06320936 -0.11715765 0.09482275
000170 e3 fb 49 3b 33 f7 37 3b a5 ba fa bd 4f 67 81 bd
       0.0030820302 0.0028070926 -0.12242631 -0.06318533
000180 2b 22 3d 3d aa 02 b1 3c c5 2d 1a 3c ec 9c 59 3d
       0.046175163 0.021607716 0.009410326 0.053128168
000190 8f 3b 06 3d df 59 3d 3d 03 78 a2 bd 42 59 39 bd
       0.032771643 0.046228286 -0.07933047 -0.04525114
0001a0 3e cf 3d 3d b3 97 3f bc 16 79 8d 3c dc 31 96 bc
       0.04634022 -0.011693883 0.017269652 -0.018334322
0001b0 5e 56 51 3d 08 f1 68 3d 14 80 4b 3d c9 16 45 3d
       0.051107757 0.05687049 0.04968269 0.048117433
0001c0 8c 29 dc 3c 9c d1 f6 3d b0 d8 aa bc 22 47 63 3c
       0.02687528 0.120516986 -0.020855278 0.01387194
0001d0 23 e4 ab 3b 86 1d 8d 3d e1 ac 83 bd 0d bf b4 3c
       0.005245702 0.06890397 -0.064294584 0.022063756
0001e0 63 07 db bd cf 20 95 bc 75 91 93 bd f4 75 13 bd
       -0.10694768 -0.01820412 -0.07205478 -0.03600116
0001f0 f2 31 f7 3c 54 38 de 3d 41 08 d1 3c e4 44 3f bd
       0.030175183 0.108505875 0.025516631 -0.04669656
000200 2f 9b b9 ba eb 8c 55 bc 6e bf c4 bd f2 79 12 bc
       -0.0014160628 -0.013034086 -0.09606825 -0.008940207
000210 7b b2 40 3b 0b e0 5f bc 3a 9d 4b 3d d6 fb da bd
       0.0029403258 -0.013664256 0.04971049 -0.10692565
000220 37 97 84 bc bf 14 d8 bc d9 60 df 3d 68 74 c8 bd
       -0.016185386 -0.02637708 0.10907144 -0.09787828
000230 3f 8f 02 be f5 82 51 39 b3 8f a4 bb 91 74 0c 3e
       -0.12749957 0.00019980579 -0.005022013 0.13716342
000240 29 54 d8 3c 72 ef 75 bd 3d 99 e7 3a ea 29 94 bd
       0.026407318 -0.060042806 0.001766957 -0.07234557
000250 bd c0 c5 bd f5 5f d6 3b a6 f0 40 3d d7 8f 45 3d
       -0.096559025 0.0065422007 0.0471045 0.04823288
000260 6a 1e 7d 3d cc 3f 2f 3c 23 b0 bc bd 73 04 0c bd
       0.061796583 0.010696363 -0.09213283 -0.03418393
000270 85 8c 48 3d ee b6 ec 3b 09 15 25 3a 64 5b 29 3d
       0.048962135 0.0072239554 0.0006297385 0.041346923
000280 a3 c6 6f bd 90 cc c3 3d 78 6c 18 3d f8 49 10 be
       -0.058539044 0.095605016 0.03721282 -0.14090717
000290 6c 5c 6a bd ce a9 c3 3d 8a 2c 88 3d 94 2a f0 bc
       -0.057217047 0.09553872 0.0664912 -0.029317178
0002a0 ae 1b 35 bd d2 4a c4 bc 20 e8 95 bd a0 7c cb ba
       -0.04421585 -0.023961458 -0.07319665 -0.0015524812
0002b0 55 4d 17 3d db 4b 02 be 30 a0 f8 bd af 8f 59 bc
       0.036938984 -0.12724249 -0.12139928 -0.013278886
0002c0 e2 15 01 be 31 e1 12 3d ea e2 64 3c f5 94 26 3c
       -0.12606004 0.03585929 0.013970116 0.01016735
0002d0 e7 54 1a bd 5c c0 5d bd 41 65 8c bd 24 74 ea bd
       -0.037678625 -0.054138526 -0.0685525 -0.11447933
0002e0 b6 38 01 be a4 1b 63 3e f1 3d 37 bd 4a da 0e bd
       -0.1261929 0.22178513 -0.044736806 -0.034876145
0002f0 3f 74 1f 3d bc dd 19 3d f0 da f0 3b b5 2e 31 3b
       0.03892922 0.037564978 0.007350318 0.0027035896
000300 2e d2 eb 3c c8 0b b9 bd e4 03 86 3d 35 e2 b1 bd
       0.028786745 -0.0903545 0.06543711 -0.08685724
000310 b5 bf f9 3d fb d1 4f bd 5b 3b 73 bb 9d 59 05 bc
       0.12194768 -0.050737362 -0.0037114236 -0.008139041
000320 fc 5b 90 3d 73 e9 87 bd 1e 05 f8 bc 83 db 2e be
       0.070487946 -0.06636324 -0.030275878 -0.17075925
000330 33 89 b1 3b c0 cd d7 bd f0 15 7e 3c 85 3b ac bd
       0.0054179667 -0.105372906 0.01550816 -0.0840979
000340 a9 7b 83 bc 53 e0 ae bc 7f ef 9e bc c0 e0 71 3d
       -0.016050177 -0.0213472 -0.01940131 0.05905223
000350 af e1 1a bd de cf ea 3c 7a aa d0 3d 85 e0 5c 3d
       -0.037812885 0.028663572 0.10188766 0.053925056
000360 3c b8 38 3d 37 ac 43 3d 0d 48 c9 3c 6f 35 17 3b
       0.045097575 0.04777166 0.02457049 0.002307262
000370 d0 4e e2 bc 06 20 ef bd bc 51 8f 3c 2c 99 05 3e
       -0.027625471 -0.1167603 0.017495029 0.13046712
000380 71 7c 31 bd c9 89 83 bd db ce 3a bd 1f b9 9c 3d
       -0.043331567 -0.06422765 -0.04560743 0.076524965
000390 d4 39 43 bd 46 0e 09 3d ba 80 16 bd 51 27 98 3d
       -0.04766257 0.033460878 -0.036743857 0.07429374
0003a0 c4 46 c0 bd 43 cf b2 bd 71 fc 10 3e 7d 1d 86 3d
       -0.093884975 -0.08730938 0.14158799 0.06548593
0003b0 11 36 02 3d 61 f7 25 3d 88 ce 9d 3d e4 4c f8 3c
       0.031789843 0.040519122 0.07705408 0.030310102
0003c0 50 c1 a4 3c 0c 21 af bd 3c 01 6f 3d 4d 25 7d bc
       0.02011171 -0.08551225 0.058350787 -0.015450788
0003d0 0a a5 d9 bb 64 85 8c bd 14 fa 9d 3d 1f 14 e4 3c
       -0.0066419886 -0.0686138 0.07713714 0.027841626
0003e0 50 b1 89 bd 07 9f 55 bc b9 f6 95 bb f3 d6 73 bd
       -0.06723273 -0.013038403 -0.004576531 -0.059531163
0003f0 5c b0 b0 bc a4 27 a9 3d 22 4b 1f 3d 54 aa 70 3c
       -0.02156847 0.08259514 0.03889001 0.014689047

conv3.bias f4 [64]
000000 2a 80 94 3d f3 26 f3 3d a9 15 03 bc 1d 07 a8 3c
       0.07251008 0.11872663 -0.00800077 0.020511204
000010 57 4a a3 3a 73 03 a3 3d 05 5c fe ba b8 0c 9a 3c
       0.0012458068 0.07959642 -0.0019406086 0.018804893
000020 8a 6e cb 3a d9 64 9b bc 85 ba d4 3d 0e dd d0 bc
       0.0015520614 -0.018968986 0.10387138 -0.025496032
000030 95 d7 99 3c 81 68 c7 3d d8 40 b2 3d 60 e7 18 3e
       0.018779555 0.097367294 0.08703774 0.14932013
000040 6a f3 5b 3d a1 85 8a bc 35 19 78 bc a3 76 03 3e
       0.053698935 -0.016909422 -0.015142729 0.12838225
000050 7f 2d 8f 3d db 2e 5e 3d ef db 6b 3d f3 e9 a9 bc
       0.069910996 0.054243904 0.057582792 -0.020741438
000060 5b 8c c1 3d 0e 57 80 3c 51 bc 8d 3b 44 7b c0 bc
       0.09450599 0.01566651 0.0043254276 -0.023496278
000070 bb 25 d0 3d 76 7c 23 3c 06 2c b0 3d 72 54 c4 bc
       0.101634465 0.009978404 0.08602147 -0.023966048
000080 23 77 47 bc 7d 43 e6 3c f8 81 53 3d d1 26 ee 3b
       -0.0121744005 0.028108353 0.05163762 0.007267811
000090 ca 7b 0b 3d 5e e7 a6 3d 28 96 b9 3d 5d 9d f4 bc
       0.0340536 0.081495985 0.09061843 -0.029860193
0000a0 43 1e ce 3c ce 55 90 bc 24 3d 27 3c 23 e3 33 3c
       0.025160914 -0.01761904 0.010207448 0.010979447
0000b0 5e 2b 92 bc ff 14 43 bc fc 71 ea 3d 64 bb c7 3c
       -0.017842945 -0.011906861 0.11447522 0.024381347
0000c0 32 e2 73 3c 90 62 ad 3d 16 de 0f 3d 65 a7 23 3d
       0.014885472 0.08466065 0.035123907 0.03995456
0000d0 2b 74 d4 3d 7e 25 f9 bc 51 8b 05 3d 62 8b ee 3c
       0.1037372 -0.030413385 0.032603566 0.029119197
0000e0 23 83 f4 3d 69 bc 0b bc da b9 e0 3d f8 5f 4f 3d
       0.11939075 -0.008528807 0.10972948 0.050628632
0000f0 55 af 5f 3c eb a9 67 3d 88 da 87 3d e1 0f 0a 3d
       0.013652642 0.05655853 0.066334784 0.03370655

fc1.weight f4 [64, 448]
000000 4e 0a 86 bd 8e 17 d8 bd 4d 27 40 bd 97 54 ab bd
       -0.06544934 -0.10551368 -0.04691248 -0.083657436
000010 b6 ed ee 3c 60 b0 55 3d a3 1d d8 bc 1b 15 07 bd
       0.029166084 0.052170157 -0.02638132 -0.032979112
000020 f3 1b 2a bb b7 c6 73 bd b0 f9 8f bd d5 1e 90 3d
       -0.00259566 -0.05951568 -0.07030046 0.07037131
000030 1b ac 28 bc 9e 38 d6 bd df 81 c2 3d 5e 24 8a bd
       -0.010294939 -0.104600176 0.09497427 -0.06745218
000040 65 b8 c9 3d 6a d9 f5 3c 74 69 28 bd 4c ea 97 bc
       0.098496236 0.030010898 -0.041116193 -0.018544339
000050 4d 29 99 3d 50 64 eb 3c d4 1e 45 3c ab a5 0d 3c
       0.074785806 0.028734356 0.012031276 0.008645455
000060 c8 c8 a8 bd 4e 8f 68 bd 73 ae b3 bc 3f 10 a8 3d
       -0.08241421 -0.05677729 -0.02193377 0.08206224
000070 10 c7 a0 3c df ad ad 3d ea 7e 0a 3d 75 d0 c8 bd
       0.01962617 0.08480429 0.03381244 -0.09805385
000080 49 ec 79 3d 1c c4 2f bd e5 ab 29 3d 17 c4 dd 3b
       0.061016355 -0.042911634 0.041423697 0.0067677605
000090 e6 8b f4 3c 51 d2 9d bd 82 27 88 3d 6f 8c 79 bd
       0.029851865 -0.0770613 0.066481605 -0.060924944
0000a0 aa 03 62 3c 99 4e a1 3d dd 71 d8 bc bd 7b c7 bd
       0.013794819 0.078763194 -0.026421482 -0.09740398
0000b0 ea c0 81 3d 00 83 19 3d 17 4a a2 bd 44 9b f0 bd
       0.063356236 0.037478447 -0.07924288 -0.117483646
0000c0 75 e5 47 bd 3d f7 3a 3d f9 f1 f6 bd e7 82 19 bb
       -0.04880281 0.04564594 -0.12057871 -0.002342397
0000d0 8e ba 01 3d 1a f5 b9 bd 18 3d 59 bc 05 e1 49 3d
       0.031672053 -0.090799525 -0.013259195 0.04928686
0000e0 2d 76 95 bd cb 3f 51 3c d6 f0 1e 3d c9 b8 e1 bc
       -0.07297931 0.012771557 0.038803898 -0.027553933
0000f0 71 8e 4a 3d cb b3 6c 3d 9a 83 b4 3d 0d 58 88 3c
       0.04945225 0.05778865 0.088141635 0.016643548
000100 96 ce 20 bd 4e 7d 5e 3d 80 49 80 3c f0 42 31 3d
       -0.039259516 0.05431872 0.015660048 0.043276727
000110 c4 03 87 bd 9d 51 c4 3d ce c3 d7 bc 41 4e e6 bd
       -0.06592515 0.09585879 -0.026338484 -0.112453945
000120 48 7f 2d bb e3 8b 7a 3d f7 11 04 bc 2b 43 dc bd
       -0.002647357 0.061168563 -0.008060924 -0.10754999
000130 c3 0b e4 bd 15 55 38 3c 22 1f 66 bd d0 c4 29 3d
       -0.11135056 0.011250754 -0.056182034 0.04144746
000140 2a 14 cf bd 97 95 24 bd 5c 96 3a 3d 07 56 d0 3c
       -0.10111268 -0.040181722 0.04555355 0.025431646
000150 65 68 b0 bd 44 a2 1f 3d dc 9e a4 bb f1 93 be bd
       -0.08613662 0.038973108 -0.0050238203 -0.09305561
000160 27 60 03 bd 2e 7f 5e 3d 46 8a 5e 3b 55 a9 a7 bd
       -0.03207412 0.054320507 0.003395693 -0.081865944
000170 86 2a a7 bd ec f4 54 3c 43 2c da bd 13 fa 66 3d
       -0.081624076 0.012997847 -0.106529735 0.056390833
000180 34 41 0e 3d dd 97 76 bd 27 ee ab bc f2 9c d3 bd
       0.03473015 -0.06020342 -0.020987583 -0.10332669
000190 6e 8a dc bb af 27 f5 3c e2 da 2b 3d ad 9b db bd
       -0.0067303693 0.02992615 0.04195679 -0.10723052
0001a0 ef cd 15 bd 2a de a4 3d 21 fa a6 3c 2e 9c 3b 3d
       -0.036573347 0.08050187 0.020382943 0.04580324
0001b0 c6 3a f8 bd 0f af dd bd ef f2 48 3b 7d a7 c5 3d
       -0.12120585 -0.108244054 0.0030662378 0.096510865
0001c0 21 0e 6a bd d1 c4 53 bd e4 36 d7 3c 7f 1e 83 3c
       -0.05714238 -0.05170137 0.026271291 0.016005753
0001d0 2d 24 dd bc 94 37 5b 3d 1b 8c 65 bc 9d e6 b3 3c
       -0.026994789 0.0535198 -0.0140104545 0.02196055
0001e0 aa 23 64 bd 07 ea e2 bb f1 ae 1b 3d e8 4b 81 3d
       -0.055698074 -0.006924871 0.038008634 0.06313306
0001f0 01 26 cd bd 57 39 b8 bc 8d d8 6e bd 96 35 13 3d
       -0.10017014 -0.02248828 -0.058311988 0.035939775
000200 47 a7 92 3d f8 ca 43 3d 80 e5 19 bd 35 5b c1 3d
       0.07160812 0.047800988 -0.037572384 0.094412245
000210 73 1b a4 3d 20 af ed bd 24 84 a6 bd 1a ff 37 3d
       0.08013048 -0.11605668 -0.081306726 0.04492102
000220 ef 84 d3 bc 29 ef 0d 3c ef 74 db bd 96 5d bd bd
       -0.025820224 0.008662977 -0.10715663 -0.09246366
000230 b4 b9 41 3c 98 1a 61 3d ba 2e 01 3d c7 0b 59 3d
       0.01182406 0.054957002 0.031538703 0.052989747
000240 8b e2 b3 3d a2 52 e8 bc 79 e8 85 bd 27 d1 a7 3d
       0.08783444 -0.028359715 -0.06538481 0.081941895
000250 f6 7c 6c 3c ba c5 91 3d 24 fb 79 bd 46 30 1d 3d
       0.01443409 0.071177915 -0.061030522 0.038376115
000260 23 c4 4f bd 7c 05 f0 bc f3 6f 91 3d 2e 3e 0e 3d
       -0.05072416 -0.02929949 0.07101431 0.034727268
000270 4e 5d c2 bd cc fb a4 3d d4 55 d0 bc 3c 09 6f 3d
       -0.09490453 0.08055839 -0.025431551 0.058358416
000280 29 92 ab 3d 81 43 0f bd 67 d6 d2 bd 9a fb 6d 3c
       0.08377487 -0.034976486 -0.102948 0.0145253185
000290 ec 5d 2a bd 91 c2 c8 3d 84 74 94 ba e0 cb 96 ba
       -0.041593477 0.098027356 -0.0011326228 -0.0011504851
0002a0 f7 22 ef bc 98 80 b0 3d c5 da 7e bd f7 6d 63 bd
       -0.029191477 0.08618277 -0.062220354 -0.055524793
0002b0 3d cc cd bd 7b cb 7c 3d 81 16 a0 3c 1e 7b bb bd
       -0.10048721 0.06171749 0.01954198 -0.09154342
0002c0 66 12 f9 3c bf 0e ff bc be c3 65 bd 25 9b 80 3d
       0.03040428 -0.031134961 -0.056094877 0.062795915
0002d0 11 78 e4 3c 85 ed 9b bd 14 1d 10 3d 9d f3 ee bd
       0.027889283 -0.07613663 0.03518398 -0.11667559
0002e0 56 91 80 bc 8f 0a c5 ba 0d 41 ee bd 85 b9 0d bd
       -0.015694302 -0.0015033054 -0.11633501 -0.034600753
0002f0 3a 7f 81 bd 24 15 06 bd f8 58 5b bc b4 33 eb bd
       -0.06323095 -0.032735005 -0.013387911 -0.11484471
000300 55 e2 fa bb 94 cc 93 3d 54 68 37 3d b3 12 62 bb
       -0.0076563754 0.072167546 0.04477723 -0.003449601
000310 57 ee 19 bc 41 ac a1 3d d2 17 88 3d 70 8b 9b 3d
       -0.009395204 0.07894183 0.06645168 0.07594955
000320 01 20 3e 3c 7a fb 09 3d 08 ca 91 bd 1f cd 2a 3d
       0.01160431 0.033687092 -0.071186125 0.041699525
000330 1c d5 22 bd 8c a9 25 bd fb 2e b7 bd 1b 65 67 3d
       -0.03975402 -0.040444896 -0.08944508 0.056492906
000340 8b 79 f1 3c 12 97 d0 bd 3c b7 6a bd 13 dd 20 3d
       0.029476902 -0.101850644 -0.057303652 0.039273333
000350 ce 02 3e bd 9a 4d c9 bd 9f 7e 36 bd 14 45 bf bd
       -0.046389394 -0.098292544 -0.04455435 -0.093393475
000360 39 be ad 3d e4 d9 bb bd cc d9 0f 3c 79 36 c1 3d
       0.08483548 -0.09172419 0.008779954 0.09434218
000370 95 fa e5 bd 2f 8d d2 bd 53 0d d9 bd dd 18 ba 3d
       -0.11229435 -0.10280835 -0.105982445 0.090867735
000380 63 d7 d3 3d 3b 6c b3 3d 2d fb d0 3c 51 3a 94 bb
       0.10343816 0.08760878 0.025510395 -0.0045235534
000390 93 c7 f8 3c c9 ba ca bd 9c f4 c5 bd ad 83 90 3d
       0.030368602 -0.09898908 -0.09665796 0.07056365
0003a0 07 13 e9 bd e7 0f df bc f9 5b a8 3d fa 33 88 bd
       -0.11380582 -0.027229263 0.082206674 -0.06650539
0003b0 55 9e 8e bd ec ab 6f bc ca a4 c6 bd e4 5e 3d 3d
       -0.06963793 -0.014628392 -0.096994 0.046233073
0003c0 6a 46 ff 3c 9b f9 18 bd ac 30 9b bd a7 c6 ad 3c
       0.031161506 -0.037347417 -0.07577643 0.021212889
0003d0 c0 82 97 3c 3b 3b 9a bd f8 fc 8a 3b 09 f2 17 bd
       0.018494964 -0.075308286 0.004241582 -0.037096057
0003e0 25 76 93 3d 6e 31 f5 bd 32 a5 62 3d 88 33 a1 3d
       0.07200269 -0.119723186 0.055333324 0.07871157
0003f0 2d ea a7 bd dc 68 47 3d f2 c5 9a bc 46 e1 32 3d
       -0.08198962 0.048683986 -0.018893216 0.04367187

fc1.bias f4 [64]
000000 b2 b7 71 bc f9 38 d5 3d e7 f5 d4 3d 43 37 a5 3d
       -0.014753269 0.10411257 0.10398465 0.08067181
000010 b1 b0 9e 3d 16 40 a5 3d fd cc 88 bc 39 5c a7 3d
       0.07748545 0.08068864 -0.016699309 0.08171887
000020 8b 62 4c bc 84 01 63 3d 9c d7 05 bc ad 14 98 3d
       -0.012474666 0.055421367 -0.008169081 0.074258186
000030 e2 eb c6 3d 8f 2d df 3d 1b 16 7e 3d 44 f8 bc bc
       0.0971296 0.108973615 0.0620328 -0.023067601
000040 25 72 bd 3d 16 bb e4 3d 23 98 85 3d 77 01 70 3d
       0.09250287 0.11168496 0.065231584 0.058595147
000050 07 14 ab 3d 0d 5c 87 3d 54 f7 bc 3d 47 66 f9 bc
       0.08353429 0.06609354 0.092268616 -0.030444277
000060 83 6a 7f 3d 43 c7 86 3d 16 e7 98 3d c4 98 74 3d
       0.062357437 0.06580975 0.07465951 0.059716
000070 90 93 57 3d 8f ca 0a bd 1d ab b6 3d 60 e9 87 3d
       0.05263096 -0.03388458 0.08919356 0.066363096
000080 2e 09 e0 3d ae a0 78 3d 67 95 8f 3d 2c 72 75 3d
       0.10939251 0.06070011 0.07010918 0.059923336
000090 69 e8 99 3d c6 26 8e 3d 30 d6 8d 3d ee 12 69 3d
       0.07515032 0.06940989 0.06925619 0.05690282
0000a0 d7 86 54 3d 4d 94 84 3d 3e 6b 22 3e eb 9d 7e 3d
       0.051886406 0.06473599 0.15861222 0.06216232
0000b0 b1 15 cd bd 8a e4 70 bc 4d b3 14 3e 5c 41 9f 3d
       -0.10013903 -0.014702925 0.14521523 0.07776138
0000c0 1b 4a 8f 3d 24 07 95 3d 81 7a 82 3d ac 46 85 bc
       0.06996556 0.072767526 0.06371022 -0.01626905
0000d0 1c 7f 75 3d 25 e5 a0 3d da 6e 64 3d cb 78 88 3d
       0.059935674 0.07856206 0.05576978 0.066636644
0000e0 9d b4 bc bc ab f3 c1 3d 6b 3a d9 3d 0a 38 b9 3d
       -0.023035342 0.09470304 0.106068455 0.09043892
0000f0 9a 37 d8 3d a4 aa a0 3d a7 dc 65 3d a8 a1 9b 3d
       0.1055748 0.07845047 0.056118634 0.07599193

fc2.weight f4 [2, 64]
000000 3f 46 30 be 33 e2 95 bd a7 2a 87 bd df 81 c2 bd
       -0.17214297 -0.07318535 -0.06599932 -0.09497427
000010 72 61 1b be 5b 5e 9d 3b 7e 1b 15 be 40 a9 a2 bd
       -0.15173891 0.004802508 -0.14561269 -0.07942438
000020 33 01 23 3c 3c 05 67 be c4 d4 59 be 62 ec 46 3e
       0.009949016 -0.2256059 -0.2127257 0.1942611
000030 73 24 8d 3e ac a9 55 3b e0 40 ab be 7d 34 4b be
       0.2756687 0.0032602353 -0.33447933 -0.19844241
000040 c0 d4 ac 3d ee d0 15 bc 7e c0 98 be 00 43 e4 3c
       0.08439016 -0.009144051 -0.2983436 0.02786398
000050 26 15 e1 bd 93 79 9c 3e 61 09 92 be 24 b5 66 be
       -0.10990362 0.30561504 -0.2852278 -0.22530037
000060 6c 37 06 be 0a 0e 75 be ef 59 81 3e 75 b9 a1 3d
       -0.1310708 -0.23931137 0.25263926 0.07896701
000070 8b f1 83 be 69 1d 4f 3e 0e 33 c9 bd bb 68 97 3d
       -0.2577022 0.20226063 -0.09824191 0.073930226
000080 93 0b 39 be cf a8 72 be 18 8f 04 3e ed a6 84 3e
       -0.18070821 -0.23697208 0.12945211 0.25908604
000090 db 85 2f be 88 24 66 be 01 86 f7 3d 00 9b 2c bd
       -0.17140906 -0.22474873 0.12086106 -0.042140007
0000a0 37 c5 7d 3e 36 9b b6 be 86 85 cc 3d ff 69 ac bd
       0.24782263 -0.35665292 0.09986405 -0.08418655
0000b0 e6 f0 79 3d a6 b9 e9 3d b9 a0 36 be f3 ca 98 be
       0.061020754 0.11412363 -0.17834748 -0.29842338
0000c0 76 87 af 3d 97 25 62 3e eb 4c 31 3c ea 3c 8f be
       0.08570759 0.22084652 0.010821561 -0.2797616
0000d0 86 ad 6b 3e 43 9b 9d 3d be fd 89 be 53 ee 7e be
       0.23015413 0.076956294 -0.26951402 -0.24895601
0000e0 d0 a0 3e be 7a 2b 93 be e8 5a 05 be 6c 89 3a 3e
       -0.18616033 -0.28744107 -0.13022959 0.18216485
0000f0 a9 b3 bf bd 1e fa ce bd 8d f2 8e be 93 5e 7a be
       -0.09360439 -0.101063 -0.27919427 -0.2445014
000100 9d 22 36 be 0d 2a 80 be ef 38 16 3e eb 2e a5 be
       -0.17786641 -0.25032082 0.14670156 -0.32262358
000110 78 55 1b 3e eb be 69 3e 34 4c 8e be 7c a8 09 3e
       0.15169322 0.22826736 -0.27792513 0.13443178
000120 11 22 7b 3e 76 4c 3b 3e 6b f8 f9 bd 38 cb bc bc
       0.24524714 0.18290886 -0.12205585 -0.023046121
000130 41 2d 41 bd c1 4b 22 be 89 50 6d 3b 65 9c 37 3e
       -0.047162298 -0.1584921 0.0036211333 0.17930754
000140 09 71 da bd 6a 7b 3e be 11 bc 2b 3b 46 e8 9a 3e
       -0.10666091 -0.18601766 0.0026204626 0.30255336
000150 3a 70 e7 3d 68 d6 b8 3b 54 dd c5 bb 5d fb 30 3e
       0.113007024 0.0056407936 -0.0060383473 0.17283387
000160 f8 a7 8a 3e a3 0b 2d 3d 04 da 30 be f9 1f 97 be
       0.27081275 0.042247426 -0.17270666 -0.2951658
000170 e2 9f e7 3d b5 1a e3 bd 03 3b cd 3d f2 5b 89 be
       0.11309792 -0.11089078 0.10021021 -0.2682796
000180 5f 09 80 3c 25 e4 69 3e dd 6d 86 be f6 ef 7b be
       0.015629468 0.22840936 -0.26255694 -0.24603257
000190 71 40 ae be a7 a6 87 3d 89 e9 ec bd cc b7 44 3e
       -0.3403354 0.06623583 -0.11567981 0.19210738
0001a0 6b 04 52 be e3 ec 2b bd 67 1f c2 bd ca 31 86 3e
       -0.20509498 -0.04197396 -0.09478646 0.2620986
0001b0 2a 0e 74 3e d6 d2 4a bd 5b 87 a5 be 10 44 b1 bc
       0.23833528 -0.049517475 -0.3232983 -0.0216389
0001c0 06 64 9f 3e 8f c8 73 be 2b d0 6c be ed 1c 64 be
       0.31131 -0.23806976 -0.23126285 -0.2227666
0001d0 e1 8b 72 be 53 aa 9c 3e fc ac 71 3e e4 de 73 3e
       -0.23686172 0.30598697 0.23601145 0.23815495
0001e0 c7 e4 4a be 39 77 77 bd 85 72 8b be cf bd 69 bd
       -0.19813834 -0.060416434 -0.2723581 -0.05706578
0001f0 6d 32 76 be d9 48 57 3e ad d3 99 3e 09 d9 b4 3a
       -0.24042673 0.21023883 0.30044308 0.0013797592

fc2.bias f4 [2]
000000 25 d8 d7 3d a8 da d7 bd
       0.10539273 -0.10539752
